models/penguin_classifier.pt (torch, 2981 bytes, 6 tensors)

fc1.weight f4 [10, 4]
-0.00374341 0.2682218 -0.41152257 -0.3679695 -0.20487967 -0.28398505 0.13597901 0.6053105
-0.044372022 0.13230628 -0.15110654 -0.098282695 -0.47767425 -0.33114105 -0.20611155 0.018521786
0.1790708 0.28123733 -0.35748708 -0.23587279 0.40088737 0.38214818 -0.20181233 0.35370356
-0.08059168 0.05290705 0.4527381 -0.46383518 -0.35555413 -0.16605727 -0.23530951 0.38971528
-0.32408983 -0.23016644 -0.34932023 -0.4682805 -0.43653098 0.80248517 0.29239038 0.17577966
00000000: 0054 75bb 5e54 893e 16b3 d2be 8066 bcbe
00000010: facb 51be 7d66 91be 153e 0b3e a1f5 1a3f
00000020: 70bf 35bd 4c7b 073e acbb 1abe 7048 c9bd
00000030: b891 f4be 528b a9be e80e 53be 00bb 973c
00000040: 565e 373e 57fe 8f3e 8c08 b7be a388 71be
00000050: 1c41 cd3e eda8 c33e e4a7 4ebe a218 b53e
00000060: 400d a5bd 10b5 583d 4acd e73e ce7b edbe
00000070: 310b b6be eb0a 2abe faf4 70be c388 c73e
00000080: 1aef a5be c0b0 6bbe 1ada b2be 76c2 efbe
00000090: fd80 dfbe ab6f 4d3f 31b4 953e 95ff 333e

fc1.bias f4 [10]
0.026295781 -0.2694904 0.08459234 -0.46684736 -0.3798124 -0.42622355 0.31546897 0.25337356
-0.22174752 0.23454656
00000000: 406a d73c a5fa 89be c03e ad3d 9e06 efbe
00000010: c576 c2be f939 dabe 2685 a13e 2eba 813e
00000020: c811 63be f92c 703e

fc2.weight f4 [10, 10]
0.20224684 0.31437248 0.12550516 0.042720113 0.21202639 -0.18619564 0.058927156 -0.24517313
-0.21917309 -0.16335806 0.14308454 0.16079889 -0.18731831 0.09553465 0.19218862 0.1523681
0.012074064 0.04166186 0.1961803 0.92533445 -0.24369256 -0.14356062 0.12428064 0.2620103
0.2593067 0.32374588 0.06293392 -0.24552564 0.029090581 -0.6688231 -0.29470977 0.51115155
0.24044687 -0.31544605 0.059189 -0.010420716 -0.052038804 -0.10196887 0.12160734 -0.48264906
0.115926355 0.15991893 0.22637847 0.11824109 -0.31298175 -0.20513597 0.15789728 0.0661869
-0.24668422 -0.1820901 0.29749104 0.50851274 -0.13788326 -0.07958972 -0.31996828 -0.0941923
-0.23813814 -0.21302694 -0.017424025 -0.31411216 -0.12950484 0.18764247 -0.19243696 0.28693563
0.21671085 -0.26666948 -0.07870413 0.014269026 0.046137974 0.07500109 0.124096714 0.018942095
-0.15429662 0.1496355 -0.30334112 -0.1874303 -0.07916125 -0.15403877 -0.110627025 -0.25918713
-0.067266434 0.33741912 -0.20601156 -0.016228607 0.20899105 -0.12881872 0.00878867 0.00082302094
0.06399861 0.23994654 0.29954556 0.20082231 0.30023092 -0.022870114 -0.2840742 -0.14991638
0.21532114 -0.0020499409 -0.15717986 -0.24232906
00000000: cc19 4f3e 6ef5 a03e 6d84 003e 49fb 2e3d
00000010: 721d 593e 12aa 3ebe 9a5d 713d aa0e 7bbe
00000020: e96e 60be 5647 27be c184 123e 77a8 243e
00000030: 5fd0 3fbe aca7 c33d 18cd 443e 6206 1c3e
00000040: 4cd2 453c a0a5 2a3d 7de3 483e b8e2 6c3f
00000050: 8b8a 79be 8e01 13be d986 fe3d 3726 863e
00000060: d9c3 843e 05c2 a53e 80e3 803d 136b 7bbe
00000070: 5f4f ee3c fe37 2bbf 33e4 96be d4da 023f
00000080: b437 763e 2582 a1be 2a70 723d a7bb 2abc
00000090: a426 55bd 0ed5 d0bd 450d f93d c71d f7be
000000a0: cc6a ed3d cac1 233e c2cf 673e 6228 f23d
000000b0: 253f a0be 2a0f 52be d3af 213e ff8c 873d
000000c0: ca9a 7cbe d475 3abe bf50 983e e42d 023f
000000d0: 4531 0dbe efff a2bd e2d2 a3be e5e7 c0bd
000000e0: 7cda 73be bc23 5abe d4bc 8ebc 4fd3 a0be
000000f0: eb9c 04be 5925 403e 320e 45be 3ae9 923e
00000100: 73e9 5d3e e788 88be a22f a1bd a2c8 693c
00000110: 2cfb 3c3d 2c9a 993d 6b26 fe3d 742c 9b3c
00000120: efff 1dbe 0c3a 193e 874f 9bbe bbed 3fbe
00000130: 4b1f a2bd 57bc 1dbe 6c90 e2bd 2db4 84be
00000140: fcc2 89bd 33c2 ac3e b2f4 52be dbf1 84bc
00000150: c001 563e 0ee9 03be 5bfe 0f3c 00c0 573a
00000160: b411 833d 8cb4 753e 095e 993e 5da4 4d3e
00000170: deb7 993e 1b5a bbbc 2c72 91be ae83 19be
00000180: 257d 5c3e 4d58 06bb c2f3 20be 1c25 78be

fc2.bias f4 [10]
-0.2959424 0.13159424 -0.27384374 0.07626936 0.17096572 -0.4653061 0.1972572 -0.24745122
-0.09499422 -0.1282217
00000000: c385 97be a4c0 063e 3f35 8cbe 1c33 9c3d
00000010: a311 2f3e 9a3c eebe cbfd 493e da63 7dbe
00000020: 548c c2bd 8d4c 03be

fc3.weight f4 [3, 10]
-0.060910296 0.3278073 -0.9960098 -1.0807507 -0.049483154 -0.3577181 -0.14365433 0.11912275
0.19421864 -0.021341339 0.27809685 -0.47728533 0.09838012 0.8323596 -0.2853832 0.908898
-0.036490936 -0.14116624 0.38886377 -0.25554213 0.033932798 -0.19362502 1.0301038 -0.24135351
0.15194914 -0.6721674 -0.076044776 -0.06650443 -1.139075 0.17134616
00000000: 137d 79bd 5cd6 a73e 80fa 7ebf 0a56 8abf
00000010: d9ae 4abd d426 b7be 1f1a 13be a1f6 f33d
00000020: 40e1 463e 08d4 aebc b662 8e3e be5e f4be
00000030: 847b c93d 8515 553f bf1d 92be 8aad 683f
00000040: 8577 15bd e28d 10be 2719 c73e 6bd6 82be
00000050: 1efd 0a3d a345 46be 71da 833f 6025 77be
00000060: 8e98 1b3e 2a13 2cbf 5dbd 9bbd 7933 88bd
00000070: 36cd 91bf 5e75 2f3e

fc3.bias f4 [3]
0.5242965 -0.096668586 -0.13340543
00000000: 4c38 063f 2efa c5bd 6f9b 08be
