models/shape_classifier.pt (torch, 314807 bytes, 8 tensors)

conv1.weight f4 [12, 3, 3, 3]
-0.008450069 0.10900056 0.02525399 -0.032792028 0.21226142 -0.103058174 0.030727576 -0.13683358
-0.19742958 0.07187591 0.21660188 -0.17035963 0.04804884 0.20755541 0.068404585 0.19459647
-0.05895614 0.06000704 0.037880484 -0.06590059 0.015864784 0.010778936 -0.037535097 -0.11992926
-0.026683668 -0.11180455 -0.081864946 0.00041448255 0.20768467 0.07652137 0.0809355 0.16141386
0.21160564 0.16885515 -0.048843272 0.027489763 -0.12938297 0.12742807 0.15512541 0.11043207
-0.07346254 0.10521322 0.014056581 0.17672275 0.15467808 0.063148156 0.07818139 0.15555799
0.059968755 0.121063784 0.017519588 0.13402675 -0.08110636 -0.03328155 -0.004683401 -0.18970355
0.19618289 0.096905194 0.14794102 0.0821357 -0.15513228 -0.18603551 0.09433683 0.16508803
-0.028632019 -0.0033773177 0.0067246617 -0.07736249 -0.16416974 0.11422227 -0.02704003 -0.013334721
0.12691012 -0.15124133 -0.101067506 -0.123746164 -0.18825689 0.015763009 0.16433822 0.10188989
0.04386557 0.21446581 0.048539214 0.0022914263 0.09646335 -0.17122194 -0.20832856 -0.016032599
-0.05465376 -0.00072192925 -0.1449064 -0.1075411 -0.10762423 0.19264041 0.15658413 -0.19540027
0.15600963 -0.050687343 -0.1590235 -0.14712067 0.097333856 -0.13683534 0.13872822 -0.020885022
-0.111220114 0.092164636 0.15516274 -0.040453598 0.15905142 0.15937679 0.13332888 -0.09503649
0.17374213 -0.18007316 0.08196661 -0.16733104 0.12603822 0.10749718 0.1621098 0.14647213
-0.0913428 -0.12830387 0.15119144 0.14253868 -0.1363986 -0.010636031 0.006612084 -0.036446642
0.051362105 0.15207373 0.08302481 0.00986369 0.15608634 0.011647711 0.13959327 -0.053348683
-0.018110717 0.013007418 0.09878809 -0.062497176 -0.021890529 0.034735803 0.18945116 0.043119047
0.053705126 -0.17800257 -0.16624565 -0.12593658 -0.08220334 0.14476565 -0.07933255 -0.1614443
0.088866465 -0.1816516 0.026451563 -0.05774591 -0.04617635 0.1642115 0.14982785 0.07431487
-0.0042622834 0.029737115 -0.046959307 0.010812781 -0.069685854 0.09245872 0.10197215 0.17235878
-0.07975493 0.018407108 -0.0018086914 -0.17752883 -0.18751775 0.13385658 0.08043995 -0.15630685
0.12758555 -0.13094921 0.12879354 -0.117384866 0.051431198 0.16434969 -0.042704955 -0.09255425
0.06875857 -0.042054266 0.0041526332 0.10577276 0.16742863 0.0024928718 0.16927253 0.17259564
-0.15710908 0.20071648 0.15706313 0.12563385 0.15986279 0.034161896 0.050655626 -0.09524949
-0.02721242 0.064102635 0.12287335 0.022252386 0.19678986 0.08611366 -0.0900951 -0.13336188
0.1305863 -0.02488926 -0.118698195 0.010730899 0.107951224 0.09297706 0.08370749 0.09227232
0.012626022 0.08378826 0.08962258 -0.071172595 -0.11274185 0.18426304 -0.1407584 0.10741067
-0.055162083 0.16285525 -0.0011136731 -0.027448518 -0.121460445 0.15555924 -0.16143095 0.0057004974
0.18813734 0.00089322345 -0.1154252 -0.119237125 0.17593047 0.12063503 0.10677318 -0.063921735
0.0654692 -0.08705259 0.10030871 0.14057054 -0.036596052 -0.17048594 -0.038332466 -0.111659735
-0.07635202 0.017321078 -0.16496265 -0.15678664 0.19719198 0.076922484 -0.052596938 0.22423926
00000000: 2972 0abc b03b df3d 75e1 ce3c ef50 06bd
00000010: 0f5b 593e 2a10 d3bd 66b8 fb3c 1a1e 0cbe
00000020: fb2a 4abe ad33 933d e2cc 5d3e c172 2ebe
00000030: dcce 443d 6889 543e b417 8c3d 4c44 473e
00000040: fe7b 71bd f1c9 753d 9128 1b3d e3f6 86bd
00000050: ddf6 813c 229a 303c 67be 19bd 799d f5bd
00000060: b597 dabc c9f9 e4bd cfa8 a7bd e84e d939
00000070: 4aab 543e 3cb7 9c3d 83c1 a53d ad49 253e
00000080: 26af 583e 5de8 2c3e e20f 48bd 3632 e13c
00000090: f87c 04be 817c 023e 32d9 1e3e 362a e23d
000000a0: 8773 96bd 077a d73d 934d 663c cff6 343e
000000b0: ee63 1e3e d253 813d 911d a03d 984a 1f3e
000000c0: cca1 753d 4af0 f73d 3d85 8f3c 4f3e 093e
000000d0: 171b a6bd 3c52 08bd 3777 99bb a641 42be
000000e0: 2be4 483e 3b76 c63d da7d 173e c336 a83d
000000f0: ffda 1ebe 1880 3ebe ab33 c13d d60c 293e
00000100: b28d eabc fd55 5dbb 8d5a dc3b 3a70 9ebd
00000110: 1d1c 28be 5eed e93d 0e83 ddbc e079 5abc
00000120: baf4 013e 02df 1abe 7bfc cebd a16e fdbd
00000130: 6ac6 40be 6d21 813c 4748 283e a6ab d03d
00000140: 62ac 333d ed9c 5b3e 0ed1 463d c12b 163b
00000150: 948e c53d ce54 2fbe 1554 55be cc56 83bc
00000160: 9fdc 5fbd da3f 3dba 5862 14be 823e dcbd
00000170: 186a dcbd 8743 453e 9757 203e 0217 48be
00000180: fdc0 1f3e 889d 4fbd 0ed7 22be cda6 16be
00000190: f956 c73d 901e 0cbe c50e 0e3e 1117 abbc
000001a0: 5fc7 e3bd d0c0 bc3d fbe2 1e3e acb2 25bd
000001b0: 60de 223e ab33 233e 5e87 083e 7ea2 c2bd
000001c0: 75e9 313e 1965 38be 1cde a73d d458 2bbe
000001d0: 2a10 013e 7b27 dc3d 1d00 263e cafc 153e
000001e0: ef11 bbbd 1762 03be eed1 1a3e a9f5 113e
000001f0: 13ac 0bbe bf42 2ebc 2eaa d83b 1349 15bd
00000200: 1261 523d 37b9 1b3e e908 aa3d 509b 213c
00000210: 19d5 1f3e 0ad6 3e3c 8af1 0e3e 2684 5abd
00000220: ed5c 94bc 111d 553c 6951 ca3d 0afd 7fbd
00000230: c453 b3bc 2147 0e3d 7cff 413e 999d 303d
00000240: e8f9 5b3d 4e46 36be 4d3c 2abe 85f5 00be
00000250: 3a5a a8bd 723d 143e 1b79 a2bd a851 25be
00000260: 9fff b53d e102 3abe f3b0 d83c fa86 6cbd
00000270: 6a23 3dbd 0f27 283e 796c 193e 6532 983d
00000280: a0aa 8bbb 409b f33c 6758 40bd 1728 313c
00000290: 75b7 8ebd ff5a bd3d c6d6 d03d d27e 303e
000002a0: 8e56 a3bd 81ca 963c 9d11 edba 1eca 35be
000002b0: a704 40be b311 093e b3bd a43d e70e 20be
000002c0: c9a5 023e 8d17 06be 74e2 033e 7a67 f0bd
000002d0: 85a9 523d 494b 283e 64eb 2ebd 158d bdbd
000002e0: 4bd1 8c3d 1841 2cbd d012 883b 649f d83d
000002f0: 6972 2b3e 735f 233b c755 2d3e e9bc 303e
00000300: 34e1 20be 9f88 4d3e 28d5 203e 29a6 003e
00000310: 12b3 233e 58ed 0b3d 467c 4f3d 2a12 c3bd
00000320: 95ec debc 3e48 833d 06a5 fb3d a34a b63c
00000330: 4883 493e 5c5c b03d c883 b8bd 0490 08be
00000340: 6ab8 053e 90e4 cbbc 0a18 f3bd a7d0 2f3c
00000350: 8815 dd3d c26a be3d d56e ab3d 45f9 bc3d
00000360: 60dd 4e3c 2e99 ab3d 0b8c b73d f0c2 91bd
00000370: 33e5 e6bd 73af 3c3e f822 10be 20fa db3d
00000380: a3f1 61bd 87c3 263e abf8 91ba b7db e0bc
00000390: 41c0 f8bd ec4a 1f3e 284e 25be 3dcb ba3b
000003a0: 13a7 403e 3627 6a3a 0c64 ecbd 9832 f4bd
000003b0: 1e27 343e 800f f73d e6ab da3d 66e9 82bd
000003c0: b714 863d a148 b2bd a76e cd3d b9f1 0f3e
000003d0: bee5 15bd de93 2ebe 8102 1dbd dcad e4bd
000003e0: 735e 9cbd efe4 8d3c f8eb 28be ad8c 20be
000003f0: b2ec 493e 8989 9d3d e36f 57bd fa9e 653e

conv1.bias f4 [12]
-0.04912398 -0.12975053 0.14821666 0.15234633 -0.15575922 0.09336431 -0.14503321 0.114655726
0.16046149 0.2397996 0.13316813 -0.15724707
00000000: 3a36 49bd 53dd 04be 1cc6 173e ad00 1c3e
00000010: 587f 1fbe ca35 bf3d 9683 14be 9fd0 ea3d
00000020: 0450 243e 078e 753e 3a5d 083e 6005 21be

conv2.weight f4 [12, 12, 3, 3]
-0.021087596 0.007056838 -0.073085226 0.11861275 -0.008153837 -0.018845875 0.056153547 0.015718326
0.07141852 0.05711857 0.066977926 -0.0041242316 -0.015253817 0.08620839 -0.05274773 -0.10084753
-0.02029427 -0.08533638 0.0087850075 0.042491224 0.052931644 0.062305234 -0.040729836 -0.008618237
0.0022569997 0.07581583 0.08829646 -0.01701163 0.022199998 -0.01150991 0.018977767 -0.0051186425
-0.02385147 0.02192306 -0.026382936 0.0026437799 -0.019735062 -0.054850638 0.016996766 -0.05768716
-0.08206268 0.07814374 -0.06123729 -0.06463071 0.08440129 0.13252917 -0.05635033 -0.105842866
0.12729597 -0.026987845 -0.0751778 0.017110948 0.051723134 0.05917685 0.08160575 -0.037810728
-0.022825427 0.0416116 0.044706635 0.085709564 -0.0051693046 0.09396806 0.076599434 0.046589743
0.06507033 0.11119096 -0.0118130185 -0.023362428 -0.04844819 -0.0035132186 -0.08202284 0.059384823
0.055813447 0.016208587 0.012946621 -0.08554024 -0.0062438203 0.063436866 -0.0460061 -0.081627406
0.017466156 -0.013202801 -0.037030224 -0.0063385977 0.086262025 0.04424372 -0.001087375 0.09353058
0.069751814 -0.025681522 0.058771335 0.08195499 0.05019391 0.08719112 0.11261404 0.02713926
-0.020920552 0.034345727 0.040089425 -0.093180396 9.303534e-05 0.0943242 -0.032565534 0.004025563
-0.010352726 -0.0046862937 -0.0037496653 -0.01611379 -0.024308952 -0.041281026 -0.07249184 -0.055234607
-0.026381666 0.0760086 0.0600337 -0.08261703 -0.08141498 0.08187464 0.01361964 -0.0105050355
-0.089680016 0.002515977 0.041786477 0.002284494 -0.023409208 -0.015085 0.033089224 -0.10471888
0.08354288 -0.015667018 -0.058668546 -0.053381365 -0.039204847 -0.025801651 0.061443 -0.0057007084
-0.027277347 0.07299238 0.02316902 0.09027435 0.04440457 -0.000894137 -0.041548222 -0.06550746
-0.07212301 -0.06882335 0.068842925 -0.057375394 -0.09305964 -0.09865375 -0.07103189 -0.052471057
0.08296899 -0.06962418 -0.009875852 -0.08747982 0.027377803 0.034191582 -0.039302085 0.009386429
-0.071293086 0.06709447 -0.038931284 -0.022309449 -0.039830115 0.07964999 -0.046897054 -0.0064301463
-0.08278724 -0.046284955 0.066617124 0.06463758 0.06406507 0.06998447 0.007143814 -0.03135948
-0.015480003 -0.07955832 0.013168256 -0.07085002 -0.00014320326 -0.09413539 0.014866624 -0.015183006
-0.041672572 0.06979583 0.031754114 0.084265515 0.08399723 -0.03146883 -0.006048651 0.01705578
-0.092052095 0.035501923 0.015337253 0.025656963 -0.06440689 0.049078524 -0.0780356 -0.025976555
-0.075088546 -0.017490244 0.018752169 -0.09014088 0.038920645 -0.037778992 -0.10469529 -0.068442866
0.058138207 -0.07384537 -0.073105335 -0.06625143 -0.01730406 -0.09717401 -0.053186897 -0.060568642
0.024140459 0.026997242 0.04008048 0.101486534 -0.002117121 0.021387648 -0.01700795 0.050229974
-0.028137429 -0.06925144 -0.03986258 -0.007085842 -0.042848818 -0.08887396 0.024916328 0.09769978
-0.042146172 0.022295557 -0.009726078 0.026471345 0.10500641 -0.030033248 -0.024047773 0.016949035
0.09732766 0.03368253 -0.052358523 0.029081376 -0.04338954 0.033216465 0.12885396 0.012084689
0.13243471 0.108867995 0.08820066 0.08458583 -0.045139533 -0.074191555 0.07621547 -0.040835034
00000000: e5bf acbc 0c3d e73b b5ad 95bd 3eeb f23d
00000010: ac97 05bc aa62 9abc 4301 663d b8c3 803c
00000020: df43 923d 29f5 693d b92b 893d 9024 87bb
00000030: 25eb 79bc 068e b03d 010e 58bd 2689 cebd
00000040: 2b40 a6bc d7c4 aebd feee 0f3c 470b 2e3d
00000050: dace 583d c633 7f3d 54d4 26bd 8233 0dbc
00000060: 2cea 133b 5445 9b3d c6d4 b43d f95b 8bbc
00000070: c5dc b53c 1094 3cbc 4377 9b3c 49ba a7bb
00000080: 2864 c3bc fd97 b33c 0721 d8bc 4443 2d3b
00000090: 6dab a1bc 10ab 60bd cd3c 8b3c 5f49 6cbd
000000a0: 7a10 a8bd d309 a03d f4d3 7abd 1b5d 84bd
000000b0: 95da ac3d bab5 073e 9bcf 66bd 25c4 d8bd
000000c0: e059 023e 9d15 ddbc d2f6 99bd 422c 8c3c
000000d0: a3db 533d 6d63 723d ea20 a73d 6cdf 1abd
000000e0: 64fc babc ed70 2a3d 4e1e 373d 7f88 af3d
000000f0: 4563 a9bb 5472 c03d 2ae0 9c3d e3d4 3e3d
00000100: 9843 853d 16b8 e33d 648b 41bc 9062 bfbc
00000110: 9c71 46bd 073e 66bb 97fb a7bd 803d 733d
00000120: a49c 643d dfc7 843c 101e 543c b92f afbd
00000130: f698 ccbb 30eb 813d e470 3cbd 452c a7bd
00000140: 2f15 8f3c 9050 58bc 01ad 17bd 03b4 cfbb
00000150: 25aa b03d e738 353d 4086 8eba f68c bf3d
00000160: 0ada 8e3d 0e62 d2bc 36ba 703d 05d8 a73d
00000170: 2198 4d3d 4291 b23d 31a2 e63d 2753 de3c
00000180: 9461 abbc 1bae 0c3d cf34 243d 5dd5 bebd
00000190: f81b c338 0c2d c13d 7063 05bd dfe8 833b
000001a0: 7b9e 29bc 7b8f 99bb f2bc 75bb 1101 84bc
000001b0: 9123 c7bc 4b16 29bd 9a76 94bd af3d 62bd
000001c0: 5d1e d8bc 66aa 9b3d e6e5 753d 1e33 a9bd
000001d0: e6bc a6bd e4ad a73d e924 5f3c 501d 2cbc
000001e0: 28aa b7bd 17e3 243b 4c28 2b3d 73b7 153b
000001f0: abc4 bfbc 1327 77bc 9188 073d da76 d6bd
00000200: 8818 ab3d 1e58 80bc 6e4e 70bd 6ba6 5abd
00000210: 4395 20bd fc5d d3bc a8ab 7b3d 02cd babb
00000220: be74 dfbc 077d 953d f5cc bd3c c2e1 b83d
00000230: 91e1 353d 8564 6aba 782e 2abd c628 86bd
00000240: 3bb5 93bd 42f3 8cbd 85fd 8c3d 7602 6bbd
00000250: 0d96 bebd fa0a cabd 2b79 91bd e4eb 56bd
00000260: a5eb a93d 1f97 8ebd 53ce 21bc 9f28 b3bd
00000270: 6a47 e03c 790c 0c3d 39fb 20bd 89c9 193c
00000280: 1c02 92bd d368 893d 6976 1fbd 4ec2 b6bc
00000290: e724 23bd 891f a33d 2017 40bd fab3 d2bb
000002a0: 5b8c a9bd 4b95 3dbd 8f6e 883d b560 843d
000002b0: 8c34 833d 0554 8f3d a816 ea3b cc72 00bd
000002c0: d79f 7dbc 79ef a2bd abbf 573c d119 91bd
000002d0: d528 16b9 0eca c0bd 2493 733c 25c2 78bc
000002e0: dcb0 2abd 1ef1 8e3d 9a10 023d 6693 ac3d
000002f0: bd06 ac3d 76e5 00bd c333 c6bb 90b8 8b3c
00000300: cf85 bcbd 776a 113d 1a49 7b3c 8d2e d23c
00000310: c2e7 83bd 9006 493d 21d1 9fbd c9cc d4bc
00000320: 06c8 99bd b347 8fbc 269e 993c c89b b8bd
00000330: 416b 1f3d 25be 1abd 7c6a d6bd c62b 8cbd
00000340: 5422 6e3d 3e3c 97bd 40b8 95bd d4ae 87bd
00000350: 3ec1 8dbc 2b03 c7bd 81da 59bd d316 78bd
00000360: 36c2 c53c 5229 dd3c 6e2b 243d 2cd8 cf3d
00000370: 65bf 0abb 2635 af3c 4254 8bbc f2bd 4d3d
00000380: 7780 e6bc b3d3 8dbd f246 23bd 5a30 e8bb
00000390: 3e82 2fbd 8d03 b6bd 541d cc3c d216 c83d
000003a0: 77a1 2cbd 2ca5 b63c 215a 1fbc 6fda d83c
000003b0: 9a0d d73d 4908 f6bc d6ff c4bc b4d8 8a3c
000003c0: b953 c73d b1f6 093d e475 56bd 113c ee3c
000003d0: 3bb9 31bd fd0d 083d 4bf2 033e dcfe 453c
000003e0: f79c 073e 2ff6 de3d 8ca2 b43d 563b ad3d
000003f0: 3be4 38bd bef1 97bd db16 9c3d a342 27bd

conv2.bias f4 [12]
-0.073374905 -0.032976866 0.036189936 -0.010684126 0.06930836 -0.06264877 0.06586043 -0.022990625
0.06675254 -0.096937716 -0.05941941 -0.004671955
00000000: 9545 96bd c012 07bd e63b 143d 790c 2fbc
00000010: 8bf1 8d3d 004e 80bd d5e1 863d d656 bcbc
00000020: 8eb5 883d 4887 c6bd c461 73bd 3317 99bb

conv3.weight f4 [24, 12, 3, 3]
0.0512617 0.01390376 0.082148746 0.03768397 0.04302352 0.052889105 -0.037898168 0.044505015
0.0900696 -0.057713967 -0.03679962 0.01238142 0.067268156 0.0062609566 0.053774234 0.0272642
0.05260563 0.005627394 -0.08377546 -0.02320987 -0.06496557 -0.04587047 0.026216317 -0.051568866
0.006565312 -0.05769501 0.0017431364 0.04724958 -0.024851574 -0.060131382 -0.06973879 -0.06730608
0.069672234 -0.006240781 -0.08025264 -0.011947457 -0.015372894 -0.00036787023 0.02239189 -0.089468956
-0.015182618 0.027956385 -0.047780927 -0.0834313 -0.020003079 -0.043267116 -0.10821683 -0.05765827
-0.0014290866 0.034117483 0.052792624 0.0744997 0.03854061 -0.00071523496 0.03661329 -0.06682368
0.057937272 0.040667187 0.04594179 -0.08275308 0.060122807 -0.008575197 -0.031323846 -0.08296046
-0.017802598 -0.076874 -0.053688955 0.02018044 0.0104468195 -0.083266124 -0.056902453 0.027886799
0.04536148 0.012154559 -0.024226865 0.06566797 0.0046559484 0.005382754 -0.025445316 -0.0042618476
0.04170228 0.04626323 -0.0691197 0.011758091 0.055645984 0.04470448 0.09110814 0.044674657
0.0382133 0.078191645 -0.031862147 0.057820298 -0.044317823 -0.07713814 -0.08976814 -0.000467383
0.04448684 -0.049309324 0.0068001556 0.022767225 -0.06318612 -0.018494872 -0.07667379 0.0058869794
-0.073047735 0.07253425 0.0907593 -0.02609883 0.038826082 0.03074337 0.07262455 -0.003378163
0.03981323 -0.0017851915 -0.09166941 -0.06266541 -0.0034010469 -0.09630442 0.04556191 0.00047694938
-0.022507899 -0.068037525 -0.09534296 0.08079975 -0.047914706 -0.07076742 -0.049741797 0.10769988
-0.008965396 0.06612139 -0.03371659 -0.025393507 0.041802987 0.11046329 -0.001938571 -0.073178455
-0.080751345 -0.046507873 -0.06157197 -0.008351065 0.056114674 -0.043180943 -0.060219772 -0.067884944
-0.0025894637 -0.033034444 -0.044775046 -0.058208875 0.0015036677 -0.015426692 -0.039095957 0.06623939
0.025291651 0.031070549 0.10931627 0.13817687 0.096723735 -0.034549378 0.080578946 0.01135292
0.0526119 0.031419314 -0.012145251 -0.023923473 -0.05981165 0.011632811 0.03680355 0.015595209
0.07202477 0.065464236 -0.0150566455 -0.071636304 -0.0610778 -0.019931057 0.029176129 0.011241616
0.07028168 -0.07481507 -0.038960863 -0.023859581 -0.029229734 0.10290422 0.03971883 0.09254969
-0.017470013 0.09409801 -0.049076755 0.017022368 0.06499161 -0.07911054 0.0022814374 -0.048971176
0.023673825 -0.08089741 -0.004746134 0.021878114 -0.025922403 0.028572366 0.016269239 0.046927683
-0.05520825 0.07391369 0.004917406 -0.09063166 0.030440712 0.06626393 0.03285264 0.05264645
-0.065715834 0.014066071 0.02264084 0.014741005 0.06525659 0.106037125 0.09488343 -0.016858106
-0.04854981 0.10894308 0.14293197 -0.050538324 0.030280601 0.008945077 -0.0636166 -0.0063653644
0.0895222 0.08565632 -0.04056944 -0.055105288 0.0037603625 0.05026999 -0.024576267 -0.08480128
-0.035011984 -0.035590973 -0.028136687 0.020161811 -0.05714743 -0.038400147 0.021705838 0.016046472
0.029786753 0.09724803 -0.00067140756 -0.05304831 0.025554793 -0.08308668 -0.018523153 -0.0026837478
0.04926946 -0.040315915 -0.023009269 0.0071128607 -0.016052822 -0.036414597 -0.004815669 -0.056460142
00000000: caf7 513d 99cc 633c 9a3d a83d 825a 1a3d
00000010: 6e39 303d 3fa2 583d 1c3b 1bbd e44a 363d
00000020: 6976 b83d 7b65 6cbd 33bb 16bd 70db 4a3c
00000030: e3c3 893d b628 cd3b 5f42 5c3d 2c59 df3c
00000040: 0079 573d 0166 b83b 7892 abbd a022 bebc
00000050: ab0c 85bd ade2 3bbd 9ac3 d63c e039 53bd
00000060: d421 d73b 9a51 6cbd f479 e43a c788 413d
00000070: 8795 cbbc 534c 76bd 36d3 8ebd c5d7 89bd
00000080: 51b0 8e3d 777f ccbb 7f5b a4bd 44bf 43bc
00000090: 97de 7bbc b5de c0b9 326f b73c 803b b7bd
000000a0: 84c0 78bc ca04 e53c efb5 43bd 08de aabd
000000b0: 7fdd a3bc dc38 31bd c9a0 ddbd 142b 6cbd
000000c0: 3050 bbba c6be 0b3d 143d 583d 4c93 983d
000000d0: c2dc 1d3d 9b7e 3bba d1f7 153d dbda 88bd
000000e0: a24f 6d3d a392 263d 752d 3c3d 727a a9bd
000000f0: 5543 763d fc7e 0cbc 6f4d 00bd 2ce7 a9bd
00000100: c1d6 91bc 1e70 9dbd f3e8 5bbd 7351 a53c
00000110: 2329 2b3c 6e87 aabd 8c12 69bd db72 e43c
00000120: f6cc 393d ea23 473c 6b77 c6bc ee7c 863d
00000130: ed90 983b d061 b03b b272 d0bc f8a6 8bbb
00000140: 03d0 2a3d 837e 3d3d a18e 8dbd 02a5 403c
00000150: 0bed 633d 0b1c 373d e896 ba3d c6fc 363d
00000160: 8d85 1c3d f122 a03d e281 02bd fad4 6c3d
00000170: 9b86 35bd 9afa 9dbd 5cd8 b7bd 160b f5b9
00000180: d537 363d 93f8 49bd d7d3 de3b 5582 ba3c
00000190: b967 81bd 8f82 97bc 2607 9dbd 90e7 c03b
000001a0: 0d9a 95bd d68c 943d 03e0 b93d 37cd d5bc
000001b0: 1908 1f3d 85d9 fb3c 2ebc 943d 2c64 5dbb
000001c0: 3313 233d 16fd e9ba 2cbd bbbd b956 80bd
000001d0: 19e4 5ebb 403b c5bd 209f 3a3d 100f fa39
000001e0: 7c62 b8bc 4257 8bbd 2b43 c3bd 577a a53d
000001f0: 3642 44bd 82ee 90bd 0ebe 4bbd c191 dc3d
00000200: 99e3 12bc a76a 873d 681a 0abd 0b06 d0bc
00000210: 9c39 2b3d 943a e23d a617 feba 96de 95bd
00000220: f660 a5bd 0a7f 3ebd e432 7cbd e8d2 08bc
00000230: 80d8 653d 80de 30bd 02a9 76bd 4307 8bbd
00000240: feb3 29bb 204f 07bd 0a66 37bd 6e6c 6ebd
00000250: b716 c53a 3cc0 7cbc 1523 20bd 84a8 873d
00000260: 7030 cf3c aa87 fe3c 35e1 df3d 3d7e 0d3e
00000270: 1817 c63d a683 0dbd 9306 a53d 9901 3a3c
00000280: 937f 573d 8ab1 003d e0fc 46bc 29fb c3bc
00000290: 10fd 74bd 8c97 3e3c 52bf 163d 0c83 7f3c
000002a0: b981 933d 1d12 863d 26b0 76bc 0eb6 92bd
000002b0: b72c 7abd 7546 a3bc c702 ef3c c12e 383c
000002c0: d7ef 8f3d a538 99bd 6d95 1fbd 2b75 c3bc
000002d0: 3273 efbc 73bf d23d 36b0 223d b18a bd3d
000002e0: 461d 8fbc 75b6 c03d b504 49bd 7e72 8b3c
000002f0: 521a 853d b504 a2bd 2b84 153b 0096 48bd
00000300: 9cef c13c 8bad a5bd 7585 9bbb bb39 b33c
00000310: 385b d4bc 9810 ea3c 1147 853c 3e37 403d
00000320: 0c22 62bd 1060 973d 3122 a13b 179d b9bd
00000330: cd5e f93c 62b5 873d 7d90 063d cea3 573d
00000340: 0696 86bd 6175 663c 4879 b93c 4284 713c
00000350: 3fa5 853d fe29 d93d 3e52 c23d 031a 8abc
00000360: 2adc 46bd 8d1d df3d c25c 123e 4601 4fbd
00000370: 060f f83c 5f8e 123c 6c49 82bd 8c94 d0bb
00000380: 6a57 b73d 956c af3d 242c 26bd 15b6 61bd
00000390: 6a70 763b e8e7 4d3d 2b54 c9bc 4bac adbd
000003a0: ba68 0fbd d7c7 11bd e97e e6bc 622a a53c
000003b0: 6c13 6abd 7949 1dbd 71d0 b13c e473 833c
000003c0: 5903 f43c fa29 c73d 6601 30ba 2f49 59bd
000003d0: 4958 d13c 5929 aabd debd 97bc d1e1 2fbb
000003e0: c6ce 493d 4d22 25bd ef7d bcbc 0013 e93b
000003f0: 3581 83bc 7927 15bd c2cc 9dbb c042 67bd

conv3.bias f4 [24]
-0.034438495 0.07912316 0.015817687 0.028128397 0.03781932 -0.07161223 0.02766824 0.046020005
-0.064235896 0.061952937 0.0715281 -0.070059665 0.009488376 0.047139052 0.005253502 -0.04028636
0.08460864 0.0084582735 0.0014494392 -0.003102889 0.012020028 0.10034082 0.036300495 0.08263159
00000000: 610f 0dbd 530b a23d 1894 813c 866d e63c
00000010: 6ee8 1a3d 6fa9 92bd 81a8 e23c 797f 3c3d
00000020: 1c8e 83bd 5dc2 7d3d 537d 923d 717b 8fbd
00000030: 2275 1b3c e114 413d 9225 ac3b 4f03 25bd
00000040: 4b47 ad3d 9294 0a3c 1cfb bd3a d759 4bbb
00000050: a7ef 443c 7d7f cd3d d4af 143d c03a a93d

fc.weight f4 [3, 24576]
0.0029882388 -0.0042664264 -0.0057327705 -0.005071143 0.01176078 -0.0067771454 -0.0008472833 -0.0028543076
-0.009676964 -0.000464665 0.0076681525 0.0070543103 -0.0014454551 -0.0011056059 -0.00031103505 -0.010814804
-0.0074567418 -0.00947885 -0.013655802 -0.0002494141 -0.0035608313 -0.005257112 -0.004007493 8.947493e-05
-0.0086834915 -0.0028470296 -0.009574811 0.0005321124 -0.00062117353 -0.011009175 0.00018464016 0.0026446627
-0.0006183879 -0.0073010856 -0.0027815737 -0.0022391388 0.00034230226 -0.0058180825 0.002635275 -0.006094849
0.0006493799 0.0076025054 -0.0019824356 -0.00082017184 -0.0031581593 0.00064211834 -0.002981623 0.0051405686
-0.0018384514 -0.0044145915 -0.0044656307 -0.0066858036 -0.005541752 0.00027924558 0.0024937645 -0.0014275478
0.0023279192 -0.0068998183 0.00204198 -0.007186744 0.0045353095 -0.0038414567 0.002672508 -0.0050300066
-0.00015661817 -0.0032855482 -0.0042790095 -0.010451242 -0.009416 -0.010836846 -0.002505058 0.006725103
-0.0048054466 0.0025334125 -0.00095682545 -0.002815695 -0.002093696 -0.0024855603 0.0032086608 -0.0025950985
-0.010366009 -0.0011319437 -0.010762636 -0.0046942667 -0.001786839 -0.0056878133 0.0016196584 -6.834133e-05
0.0008021225 -0.0017431469 -0.011594221 0.0044309967 -0.0045580156 0.0059631695 -0.0026748155 0.0017276878
0.0015235102 -0.0043148305 0.00865411 0.0055190427 0.002797176 0.00076973427 -0.0028282832 0.0050886557
0.0021697278 0.0028754352 0.0027708865 0.00040629128 -0.0050333897 0.00075067853 -0.012614772 0.0033365577
0.0032053827 0.00040726375 -0.010439202 -0.0037318415 -0.0072624576 -0.00017780747 -0.002690381 -0.0117476
0.0014087728 -0.004015884 0.0029930414 0.000839483 -0.0067300503 -0.0040590935 -0.010465319 -0.0022968017
-0.008048357 0.007983107 0.006175282 0.0017644572 -0.008028942 0.0044376855 -0.0045933416 0.00221518
0.0074545527 0.00735427 0.0036598237 0.0029085265 6.11767e-05 -0.0040757777 0.0036879173 0.010733857
-0.005540684 0.0034704236 0.0053470624 0.005230455 0.0014426024 -0.0038516796 -0.0022486225 0.009188965
-0.008034299 0.005069675 0.010471292 0.0020183674 0.0025212169 0.0023506538 -0.0058251624 -0.008632769
0.0039735236 0.004185037 0.0075031472 0.016544066 0.010201815 -0.0048570666 -0.0065697976 0.0052655833
0.0022768779 0.007529766 0.006454048 0.0057798075 0.010592892 0.0101106865 0.013336194 0.008189005
0.014782748 -0.002232521 -0.0034562082 -0.007117709 0.009917011 -0.006295436 0.0012317649 -0.004052197
0.0012917139 -0.010376094 -0.0089697065 0.0018770593 0.0032500217 0.0064121103 0.0021919354 -0.0063082227
0.0065371892 0.012776843 0.010478293 0.010068831 0.019784335 0.005804174 -0.0022424883 -0.010755661
0.001164196 -0.00030838902 0.0025910663 -0.011663431 0.00043676328 0.0041996962 -0.011723346 0.0033038144
0.0022218695 0.0023688863 0.0011746138 -0.00684899 0.00022056553 -0.003760721 0.00032554066 -0.004951874
0.011810207 -0.002261786 0.0057276054 0.002842748 0.00026837422 -0.008028276 -0.0012140636 -0.007390946
0.004024879 -0.0061996905 -8.177041e-06 0.011377431 0.013377415 0.02013512 0.014410059 -0.011644889
-0.011199313 -0.009135706 0.0027744677 0.01684448 0.0061830254 -0.000901117 0.0012239625 0.0069552483
0.011352876 0.009670021 0.0077566165 0.0043142657 0.0044642044 -0.0004819098 9.299021e-05 -0.0033805277
0.0013966755 0.0015460226 -0.0020634532 -0.002566675 -0.0007424876 0.0011359958 -0.00089337054 -0.0036478871
00000000: 54d6 433b 61cd 8bbb f7d9 bbbb d52b a6bb
00000010: 49b0 403c d112 debb 381c 5eba 560f 3bbb
00000020: 218c 1ebc 489e f3b9 2045 fb3b d827 e73b
00000030: 6d75 bdba fae9 90ba 6b12 a3b9 9330 31bc
00000040: af57 f4bb 2e4d 1bbc 96bc 5fbc cbc3 82b9
00000050: d65c 69bb da43 acbb 4a51 83bb 7da4 bb38
00000060: 3445 0ebc 3b95 3abb abdf 1cbc 757d 0b3a
00000070: 40d6 22ba d45f 34bc f79b 4139 1452 2d3b
00000080: 4f1b 22ba f23d efbb 104b 36bb 84be 12bb
00000090: 0877 b339 9da5 bebb 94b4 2c3b 4db7 c7bb
000000a0: 263b 2a3a 701e f93b c0eb 01bb cd00 57ba
000000b0: 1ff9 4ebb d553 283a 5567 43bb 3772 a83b
000000c0: 31f8 f0ba 47a8 90bb 6d54 92bb 9614 dbbb
000000d0: 9697 b5bb b567 9239 6d6e 233b 8e1c bbba
000000e0: 0190 183b df17 e2bb bdd2 053b c77e ebbb
000000f0: ef9c 943b f3c0 7bbb 3e25 2f3b c1d2 a4bb
00000100: df39 24b9 5a52 57bb ef36 8cbb b03b 2bbc
00000110: 9145 1abc 078d 31bc e62b 24bb 415e dc3b
00000120: 0277 9dbb 9c07 263b 78d3 7aba 8687 38bb
00000130: 6436 09bb c8e4 22bb 6548 523b 8712 2abb
00000140: 31d6 29bc ba5d 94ba c455 30bc 5dd2 99bb
00000150: 5e34 eaba d660 babb b84a d43a 7952 8fb8
00000160: 8845 523a 4e7a e4ba b0f5 3dbc e531 913b
00000170: 685b 95bb b166 c33b f54b 2fbb 9573 e23a
00000180: 85b0 c73a 6c63 8dbb f8c9 0d3c 16d9 b43b
00000190: d350 373b fec7 493a b85a 39bb bdbe a63b
000001a0: fe31 0e3b cc71 3c3b c397 353b 7e03 d539
000001b0: 22ef a4bb 2fc9 443a 30ae 4ebc 26aa 5a3b
000001c0: 6611 523b 0486 d539 3009 2bbc e991 74bb
000001d0: e9f9 edbb d471 3ab9 1a51 30bb 0179 40bc
000001e0: 92a6 b83a ad97 83bb e726 443b c010 5c3a
000001f0: c187 dcbb 2502 85bb bb76 2bbc f085 16bb
00000200: 42dd 03bc 94cb 023c 055a ca3b 5c45 e73a
00000210: d38b 03bc 016a 913b be83 96bb 8e2c 113b
00000220: 5245 f43b 17fc f03b a7d9 6f3b fa9c 3e3b
00000230: fe4b 8038 1a8e 85bb fcb0 713b 0fdd 2f3c
00000240: a08e b5bb 0c70 633b 6936 af3b 3d64 ab3b
00000250: b415 bd3a 766c 7cbb a05d 13bb 508d 163c
00000260: 4ba2 03bc 841f a63b c88f 2b3c 9646 043b
00000270: 003b 253b 6d0d 1a3b 01e1 bebb 7570 0dbc
00000280: 5534 823b a322 893b f6dc f53b 6c87 873c
00000290: 8325 273c 0728 9fbb 7547 d7bb ea8a ac3b
000002a0: ac37 153b 41bc f63b 7b7c d33b 8a64 bd3b
000002b0: cf8d 2d3c 4ba7 253c 0d80 5a3c 2d2b 063c
000002c0: 5733 723c 7d4f 12bb 8d81 62bb ac3b e9bb
000002d0: f57a 223c f249 cebb 2c73 a13a 4bc8 84bb
000002e0: ba4e a93a 7e00 2abc adf5 12bc a907 f63a
000002f0: 51fe 543b ae1c d23b 93a6 0f3b 35b5 cebb
00000300: eb35 d63b f755 513c 25ad 2b3c bdf7 243c
00000310: c212 a23c f130 be3b b6f6 12bb 8338 30bc
00000320: ef97 983a 46af a1b9 e1ce 293b fa17 3fbc
00000330: 60fd e439 9b9d 893b 4713 40bc cf84 583b
00000340: c99c 113b 513f 1b3b 80f5 993a 7e6d e0bb
00000350: 9c47 6739 6e76 76bb 54ad aa39 5443 a2bb
00000360: 997f 413c 793a 14bb a3ae bb3b 664d 3a3b
00000370: 94b4 8c39 0889 03bc 3721 9fba c02f f2bb
00000380: 22e3 833b c626 cbbb 2030 09b7 6868 3a3c
00000390: f22c 5b3c 68f2 a43c 2b18 6c3c 34ca 3ebc
000003a0: 537d 37bc eead 15bc d8d3 353b 6ffd 893c
000003b0: fa9a ca3b f038 6cba 5e6d a03a dae8 e33b
000003c0: 6a01 3a3c 026f 1e3c 372b fe3b af5e 8d3b
000003d0: 7648 923b d7a8 fcb9 bd03 c338 d88b 5dbb
000003e0: a710 b73a e9a3 ca3a 003b 07bb a935 28bb
000003f0: 80a3 42ba b2e5 943a 1531 6aba 6411 6fbb

fc.bias f4 [3]
-0.003167155 0.00010740019 -0.00065411173
00000000: 0b90 4fbb 0a3c e138 b278 2bba
